checkpoint_critic.pth (torch_old, 169962 bytes, 5 tensors)

fcs1.weight f4 [256, 33]
0	0xbd7ff59f	-0.062490102
1	0x3d9aa55a	0.075510696
2	0x3e0155a8	0.12630332
3	0xbdf7d05c	-0.12100288
4	0xbe42f9b3	-0.19040565
5	0xbe0ca197	-0.13733517
6	0x3e0845d5	0.13307889
7	0xbd8b298c	-0.06795034
8	0x3cecfa06	0.028927814
9	0x3dc87ec6	0.09789805
10	0xbd7f1561	-0.062276248
11	0x3ce2783e	0.027645227
12	0xbd481d7e	-0.04885625
13	0x3c391840	0.011297286
14	0x3df6ab7d	0.120444275
15	0xbd8b3404	-0.067970306
16	0xbe547bee	-0.207504
17	0xbe1817dd	-0.14852853
18	0x3d90cefd	0.0707073
19	0x3e83971f	0.25701234
20	0xbc1629a1	-0.009165199
21	0xbb2ffe5a	-0.0026854486
22	0xbb571ce5	-0.003282362
23	0x3c36c4a3	0.01115528
24	0x3cc1019d	0.02356034
25	0xbd102bcb	-0.035198014
26	0xbd905eeb	-0.07049354
27	0x3d5a5e82	0.053312786
28	0xbdc10876	-0.09425442
29	0xbd4e6a80	-0.050394535
30	0xbdea8c0e	-0.114524946
31	0x3d2599be	0.040429823
32	0xbdc19694	-0.094525486
33	0x3d20cdff	0.039258953
34	0xbe071673	-0.13192157
35	0xbd0aeb73	-0.033915948
36	0xbd139898	-0.036034197
37	0x3cf557b7	0.029949052
38	0x3d5747c0	0.05255866
39	0x3ca93782	0.020656351
40	0xbc3efcae	-0.011656923
41	0x3d7b5a61	0.06136549
42	0xbd9f6188	-0.077822745
43	0x3c5a4ed0	0.013324454
44	0xbbf56dad	-0.007489881
45	0x3cff6b7e	0.031179186
46	0x3d48f127	0.049058106
47	0x3db84519	0.08997554
48	0x3d9674cc	0.07346496
49	0xbe170ab0	-0.1475017
50	0x3deb2c17	0.11483019
51	0x3d423288	0.04741147
52	0x3d5ee978	0.054421872
53	0x3be6a2de	0.0070384583
54	0xbc8b0b5b	-0.016973188
55	0xbc1330aa	-0.00898377
56	0x3c50d84d	0.012746883
57	0x3ca841a7	0.020539118
58	0x3cfbe6c1	0.03074968
59	0xbcd9fcad	-0.026609743
60	0xbdc3a187	-0.09552293
61	0x3dcf62d3	0.10126271
62	0x3ca3f630	0.020014852
63	0x3da6d946	0.0814691
64	0x3b9d9aa0	0.0048096925
65	0xbe357cee	-0.17723438
66	0xbdfb1f69	-0.122618504
67	0x3d96961c	0.0735285
68	0xbd6cccc9	-0.057812486
69	0xbd1a66ec	-0.03769581
70	0xbd5eeb82	-0.054423817
71	0x3e4bd3f1	0.19905068
72	0x3d876dc2	0.066127315
73	0x3c068edb	0.00821277
74	0x3d042bf8	0.032268494
75	0xbc185253	-0.009296971
76	0xbd34802c	-0.044067547
77	0x3d40f3a7	0.047107365
78	0xbd9ef156	-0.07760875
79	0x3c343573	0.010999071
80	0x3e0f3441	0.13984777
81	0xbd42bf8e	-0.047545962
82	0x3ce5ded6	0.028060358
83	0x3ccc5f90	0.024947912
84	0x3c530e23	0.012881788
85	0x3dd4b64b	0.10386332
86	0x3d4312ae	0.047625236
87	0x3c11d9a8	0.008901991
88	0x3d329b5b	0.04360519
89	0xbd052475	-0.03250547
90	0x3d26520a	0.040605582
91	0xbe383e92	-0.17992619
92	0x3ce5de95	0.028060237
93	0x3c4a069e	0.012330679
94	0xbd99b696	-0.07505529
95	0xbb512e40	-0.0031918436
96	0x3d6096a5	0.054831166
97	0xbd5e991e	-0.054345243
98	0x3db2061a	0.0869257
99	0x3e52ba8f	0.20578979
100	0xbd84d1d7	-0.06485336
101	0x3d3cdf5c	0.04611145
102	0x3decf473	0.115700625
103	0x3e28fd39	0.16502847
104	0x3d892014	0.066955715
105	0x3e0be4de	0.13661525
106	0xbcac1b8c	-0.02100923
107	0x3d815811	0.063156255
108	0xbcf15519	-0.029459523
109	0x3d574229	0.05255333
110	0x3c06aab1	0.008219407
111	0x3d014fc6	0.03157022
112	0xbcb94033	-0.02261362
113	0x3d1fd7d5	0.039024193
114	0x3cf2906d	0.029609883
115	0x3d1a27ba	0.037635542
116	0x3d79ce14	0.060987547
117	0x3d67ef35	0.05662461
118	0xbde2259d	-0.110423304
119	0x3cf1f65f	0.029536424
120	0x3d31abd4	0.04337676
121	0xbd461343	-0.048358213
122	0xbc35475b	-0.011064376
123	0x3bdaa868	0.0066729076
124	0x3cb3c48e	0.02194431
125	0xbdaea356	-0.085272476
126	0x3db8397b	0.089953385
127	0x3ce028e3	0.027363246
128	0xbccaa0b8	-0.02473484
129	0x3c53c12a	0.012924472
130	0xbc33c680	-0.010972619
131	0x3e7c07b9	0.24612321
132	0x3d6d0305	0.057864208
133	0x3b23e0e9	0.0025005883
134	0x3da74523	0.08167484
135	0xbdc30ef9	-0.0952434
136	0xbe89e1d7	-0.26930115
137	0x3d6dcf1f	0.058058854
138	0x3e051a7a	0.12998381
139	0x3d6fe513	0.05856807
140	0x3c3c20d0	0.0114824325
141	0xbc9ea6ce	-0.019366648
142	0x3ce04b5c	0.027379684
143	0x3d288386	0.041141056
144	0xbd3c67bf	-0.045997377
145	0xbcd80ddd	-0.026373798
146	0xbd97e45e	-0.074166045
147	0x3b4f049e	0.0031588445
148	0x3ce7feda	0.028319765
149	0x3cf5cdd7	0.030005379
150	0xbe746a18	-0.23868597
151	0xbe804433	-0.25052032
152	0x3c078503	0.008271459
153	0xbda6b07f	-0.08139133
154	0x3b02ec0a	0.0019977116
155	0xbda4b9b9	-0.08043236
156	0x3c0b4cd9	0.008502209
157	0xbc77c7bf	-0.015123307
158	0xbda1af80	-0.07894802
159	0x3d9d33b6	0.07675879
160	0xbe21ffe8	-0.15820277
161	0x3c92d958	0.017925903
162	0xbdac9e62	-0.084286466
163	0x3c88a194	0.016678609
164	0xbee8bb8e	-0.45455593
165	0xbc3d21ec	-0.011543732
166	0x3c9bf41b	0.019037297
167	0xbe82f873	-0.25580177
168	0xbd6115b2	-0.05495233
169	0x3ddb6414	0.10712448
170	0x3d53a244	0.05166842
171	0x3d0f6248	0.035005838
172	0x3da02d53	0.07821145
173	0xbe19317a	-0.1496028
174	0x3de2a32d	0.110662796
175	0xbb9c6597	-0.0047728526
176	0xbdb20bb4	-0.086936384
177	0xbd4c6c53	-0.049907994
178	0x3df83587	0.121195845
179	0x3cbd9816	0.02314381
180	0xbd1f0999	-0.038827512
181	0x3d363899	0.04448757
182	0x3d256567	0.040379908
183	0x3eaab465	0.33340755
184	0xbe67aec2	-0.22625259
185	0x3c00b2e9	0.0078551555
186	0xbdd1dafa	-0.102468446
187	0xbcb8d21d	-0.022561127
188	0x3e0d7f39	0.13818063
189	0x3d33dbfe	0.043910973
190	0xbd07b0b0	-0.033127487
191	0xbdc08dc6	-0.09402041
192	0xbd62bb74	-0.05535455
193	0x3dd7426a	0.10510714
194	0x3d441aa4	0.04787697
195	0x3d732f70	0.05937141
196	0x3c1980c8	0.009369083
197	0x3d261163	0.040543925
198	0xbcce10b7	-0.025154455
199	0xbcc3e93d	-0.023914928
200	0xbe3076c3	-0.17232804
201	0xbdeb072b	-0.114759766
202	0x3c6c4cb0	0.014422581
203	0xbe8f48e0	-0.27985287
204	0x3aa7ab28	0.0012792097
205	0x3cac6fec	0.021049462
206	0x3da53dbc	0.080684155
207	0xbe13a372	-0.14417818
208	0x3c59c89b	0.013292457
209	0xbd330a8f	-0.04371124
210	0xbcf15254	-0.029458202
211	0x3cab498f	0.020909099
212	0xbc99a485	-0.018755207
213	0x3cd537ab	0.026027521
214	0xbe592dbd	-0.21208854
215	0x3e776588	0.24159825
216	0xbe811bbb	-0.2521647
217	0xbd5a7c04	-0.053340927
218	0x3c4e233e	0.012581645
219	0xbc6bd073	-0.01439296
220	0x3ca0be5a	0.019622017
221	0xbcb8d285	-0.022561321
222	0xbd3ddef8	-0.046355218
223	0x3d0e8488	0.03479436
224	0xbd19fb06	-0.03759291
225	0x3db81d15	0.08989922
226	0x3d44216e	0.047883444
227	0xbd438164	-0.04773082
228	0xbded8b7d	-0.11598871
229	0x3abe9d80	0.0014542788
230	0xbf3b54f1	-0.73176485
231	0xb9ffc11a	-0.00048781262
232	0x3dbf8032	0.09350623
233	0x3db2be18	0.08727664
234	0xbd74f91b	-0.059807878
235	0xbd91a2b8	-0.07111114
236	0x3d11e646	0.035619996
237	0xbcbe153d	-0.023203487
238	0xbd32cd82	-0.04365302
239	0xbb2a679e	-0.0026001702
240	0x3d16f114	0.036851004
241	0xbc22384b	-0.009901117
242	0xbc49a9ae	-0.012308521
243	0x3d7a00b7	0.061035838
244	0x3cf4102d	0.02979287
245	0xbc7ea9ec	-0.015543442
246	0xbdf6151e	-0.120157465
247	0x3d0e42ff	0.03473186
248	0x3dc35b40	0.09538889
249	0xbbae8d54	-0.005326906
250	0x3cc77a16	0.024350207
251	0xbc55b962	-0.013044687
252	0x3c52e3c1	0.012871684
253	0xbcbba232	-0.02290449
254	0x3c9afe9c	0.018920235
255	0x3c5a8a17	0.013338587

fcs1.bias f4 [256]
0	0xbc952fba	-0.018211234
1	0x3e4c77b3	0.19967537
2	0xbc8d1622	-0.017222468
3	0x3ddd4aa2	0.10805251
4	0xbd4f1a4b	-0.050562184
5	0xbdb06fae	-0.08615051
6	0xbe613da4	-0.2199617
7	0xbe034dab	-0.12822597
8	0x3d61ab64	0.05509509
9	0x3d18e355	0.037326176
10	0xbd45851a	-0.04822264
11	0x3d149fac	0.036285087
12	0x3dfafb43	0.122549556
13	0xbe3a7b2b	-0.18211047
14	0xba237c97	-0.0006236522
15	0x3cde6c13	0.027151143
16	0xbdea343a	-0.11435743
17	0xbdfd00b6	-0.12353651
18	0x3def1196	0.11673276
19	0xbda3f084	-0.08004859
20	0x3e1185ae	0.14211151
21	0xbd81ce51	-0.0633818
22	0x3d9ba919	0.07600612
23	0xbc1bcb83	-0.00950897
24	0x3ca000e2	0.019531671
25	0xbc9102e3	-0.017701572
26	0xbdfae31a	-0.122503474
27	0xbde322de	-0.11090635
28	0x3d82f0bc	0.06393573
29	0x3e0d45c3	0.13796143
30	0x3dca7b58	0.09886807
31	0xbe33707b	-0.17523377
32	0xbe18b442	-0.14912513
33	0xbd5a6c6c	-0.053326055
34	0xbd893f24	-0.06701496
35	0xbc7ba735	-0.0153596895
36	0x3e10e14a	0.14148441
37	0x3b3fab76	0.0029246486
38	0xbdfd31c8	-0.12363011
39	0x3df23546	0.11826567
40	0xbdcc0be3	-0.09963205
41	0xbe544034	-0.20727617
42	0x3cda18eb	0.02662321
43	0xbdaac48e	-0.08338271
44	0xbdac28e0	-0.08406234
45	0xbe1bf777	-0.15231119
46	0xbd1b0b37	-0.037852492
47	0x3d04625e	0.032320373
48	0x3d28e7ca	0.041236676
49	0xbe0ad651	-0.13558318
50	0xbe2fb99a	-0.17160645
51	0x3db5296c	0.08845791
52	0xbe342fda	-0.17596379
53	0xbdb7ca34	-0.08974114
54	0xbe57186e	-0.21005413
55	0xbc5c3317	-0.013439915
56	0xbd9cdee6	-0.07659702
57	0xbd58a9f5	-0.05289646
58	0xbd40564c	-0.0469573
59	0xbd06f5cc	-0.032949254
60	0xbe2b29fe	-0.16715237
61	0x3c8cb6d3	0.017177021
62	0xbdfec4d1	-0.124398835
63	0xbdb23858	-0.08702153
64	0xbe4281cc	-0.18994826
65	0xbe4a337c	-0.19746202
66	0xbc3187a5	-0.010835563
67	0x3e158b8b	0.14604013
68	0xbd24beae	-0.04022091
69	0x3ca6fad1	0.02038327
70	0x3d8226a3	0.063550256
71	0x3b9f9431	0.0048699607
72	0xbd3fa571	-0.046788637
73	0xbde3b79b	-0.11119004
74	0xbda7557f	-0.08170604
75	0x3df41b90	0.1191932
76	0x3dc92014	0.098205715
77	0xbdb5558c	-0.088542074
78	0x3e8be673	0.27324256
79	0xbe0075ad	-0.1254489
80	0xbccdeb93	-0.025136745
81	0x3e1e9f94	0.15490562
82	0xbd42e92b	-0.047585648
83	0x3d7bb97f	0.0614562
84	0x3d0afdcf	0.033933457
85	0xbe101d61	-0.14073707
86	0x3de15021	0.110016115
87	0x3cf6b2b5	0.030114511
88	0x3de23870	0.11045921
89	0x3e11e136	0.14246067
90	0x3b589b02	0.0033051376
91	0xbcf970ef	-0.030449359
92	0x3d9da793	0.07697978
93	0xbe5559b8	-0.20835006
94	0xbe421ce5	-0.18956335
95	0xbd86d14d	-0.0658289
96	0x3d7d9a1a	0.06191454
97	0xbdf22f37	-0.11825412
98	0x3e0134fc	0.12617868
99	0xbe1856c9	-0.14876856
100	0x3dec116b	0.1152676
101	0xbd19d805	-0.037559528
102	0xbd2c77ee	-0.04210656
103	0xbdb42517	-0.08796137
104	0xbe4dc222	-0.20093587
105	0x3d58244a	0.052768983
106	0x3ae8d584	0.0017763828
107	0x3bc384be	0.005966752
108	0x3d833391	0.0640632
109	0xbe13d17f	-0.14435385
110	0x3e0c3cf9	0.13695134
111	0x3e2d4e2a	0.16924348
112	0xbded6f7e	-0.11593531
113	0x3e101dc8	0.1407386
114	0xbd02d449	-0.031940732
115	0xbe09ee63	-0.13469844
116	0x3d2ffcfe	0.04296588
117	0xbe3faf86	-0.187193
118	0x3d540fd5	0.05177291
119	0xbdf3b00a	-0.11898811
120	0x3e139df4	0.14415723
121	0x3d8f0479	0.06983275
122	0x3d9d8396	0.07691114
123	0x3d82b730	0.063825965
124	0xbe0a32ec	-0.13495988
125	0x3e0a11c2	0.13483337
126	0x3ccfd6e4	0.025371023
127	0x3dc085c1	0.094005115
128	0xbd1a63a8	-0.037692696
129	0x3df74c6f	0.120751254
130	0xbe4d55ed	-0.2005231
131	0xbd824f67	-0.06362801
132	0xbe0d624b	-0.13807027
133	0x3e1dc5b2	0.15407446
134	0xbdcd00b2	-0.10009898
135	0xbddfd679	-0.10929579
136	0xbe29ef15	-0.16595109
137	0x3ad3dafa	0.0016163283
138	0xbe13296b	-0.14371268
139	0xbe15b3fc	-0.1461944
140	0x3d5f26c0	0.054480314
141	0xbe1ec8f8	-0.15506351
142	0xbe147c1c	-0.14500469
143	0xbe166618	-0.14687383
144	0x3d15a1f6	0.03653141
145	0xbdceca54	-0.10097185
146	0x3c39782d	0.011320156
147	0xbd1f1eaf	-0.03884762
148	0xbd44c28f	-0.048037108
149	0xbd1783d9	-0.036990974
150	0x3d432ee5	0.047652144
151	0xbd8a98e8	-0.06767446
152	0xbd5bf2b8	-0.05369827
153	0x3df64f49	0.12026841
154	0x3db5525d	0.088536
155	0x3cadf5cc	0.02123537
156	0x3e0753ca	0.13215557
157	0xbb997cf6	-0.004684086
158	0xbe0041d5	-0.12525113
159	0xbe022d81	-0.12712671
160	0x3d4cda06	0.05001261
161	0xbe079fbd	-0.13244529
162	0xbdd61864	-0.10453871
163	0xbe8523f8	-0.26004004
164	0x3d171ec7	0.036894586
165	0x3d505f22	0.050871976
166	0x3e43e087	0.19128619
167	0x3d7f223f	0.06228852
168	0xbdbde06b	-0.0927132
169	0x3c8ab8b3	0.016933775
170	0xbd749291	-0.05971009
171	0x3e457bfd	0.19285579
172	0x3d918bbe	0.07106732
173	0x3d4efeea	0.050536074
174	0xbc58a72f	-0.013223453
175	0x3d2d64f0	0.04233259
176	0x3d3de599	0.04636154
177	0x3d3a06cf	0.04541665
178	0x3e72dab8	0.23716247
179	0xbdb4a15d	-0.0881984
180	0xbd8ebdc7	-0.06969791
181	0xbce061cd	-0.027390385
182	0xbe3e5a47	-0.18589126
183	0xbdc9655e	-0.098337874
184	0xbd8811b1	-0.06643999
185	0x3d397d44	0.04528548
186	0xbd88c0be	-0.06677388
187	0xbdd42555	-0.10358683
188	0x3d28c66f	0.041204866
189	0x3e8cb705	0.27483383
190	0xbe1f4edc	-0.15557426
191	0xb9a69842	-0.00031775428
192	0xbd1d9812	-0.038475104
193	0x3e1b4039	0.15161218
194	0x3e113d60	0.14183569
195	0x3d68c8ec	0.05683224
196	0xbda125f3	-0.07868566
197	0xbd2ae394	-0.04172094
198	0xbe088e42	-0.13335517
199	0xbe3c25e9	-0.18373837
200	0xbe61766d	-0.22017832
201	0x3e209fb7	0.15685926
202	0x3d56e27c	0.052462086
203	0xbe117e84	-0.14208418
204	0x3d805d61	0.062678106
205	0xbd83b2cb	-0.064305864
206	0xbd01626a	-0.031587996
207	0x3de21f05	0.11041073
208	0xbe31b684	-0.1735478
209	0x3d8fc660	0.07020259
210	0x3e005d2c	0.12535542
211	0x3de707bd	0.11280773
212	0x3c8e1091	0.017341884
213	0xbdebe071	-0.11517418
214	0xbe0dbc3e	-0.1384134
215	0x3e0cfe30	0.1376884
216	0xbe04f158	-0.1298269
217	0xbb047d64	-0.002021634
218	0xbbad5e5f	-0.005290791
219	0xbb5d164e	-0.0033735218
220	0x3d527387	0.051379707
221	0xbe846758	-0.25860095
222	0xbe3437c2	-0.17599395
223	0xbe788611	-0.24269892
224	0x3e160663	0.14650874
225	0xbe86836b	-0.2627214
226	0xbe26ea53	-0.16300325
227	0xbe0b08aa	-0.13577524
228	0xbd37db73	-0.044887017
229	0xbd0913b0	-0.03346604
230	0xbd2cdd41	-0.04220319
231	0x3e235f2f	0.15954278
232	0xbe737032	-0.23773268
233	0xbe8f17d2	-0.2794786
234	0x3d80650e	0.06269275
235	0xbdef709f	-0.11691403
236	0xbd20ff50	-0.039305985
237	0xbd4d2c2f	-0.050090965
238	0xbdb4c294	-0.08826175
239	0xbe6008a0	-0.2187829
240	0xbde2b14c	-0.11068973
241	0xbe5ee9dc	-0.21768898
242	0x3df5d491	0.120034344
243	0xbd888aa2	-0.06667067
244	0x3e0932b6	0.13398251
245	0x3d179fa8	0.037017494
246	0x3d1ce9ab	0.03830878
247	0xbd112cf1	-0.03544325
248	0x3e1bee33	0.15227585
249	0xbdedbaf9	-0.11607928
250	0x3d0ad509	0.033894572
251	0xbe369072	-0.17828539
252	0x3e89797a	0.26850492
253	0x3d05560f	0.032552775
254	0x3c27813a	0.010223681
255	0x3d127a2e	0.03576105

fc2.weight f4 [128, 260]
0	0x3d23100c	0.039810225
1	0x3dce92bd	0.10086582
2	0x3e0347e9	0.128204
3	0xbd83434b	-0.064093195
4	0x3dbffda6	0.093745515
5	0xbd998734	-0.07496491
6	0xbdbb2f37	-0.09139865
7	0x3e16136c	0.14655846
8	0xbdb6c8cb	-0.08925017
9	0xbe213775	-0.15743811
10	0x3e0305e0	0.1279521
11	0x3db53097	0.088471584
12	0x3d820d54	0.063501984
13	0x3d1512a4	0.03639473
14	0xbd1c6044	-0.038177744
15	0x3c157111	0.009121195
16	0x3d0077d5	0.03136428
17	0xbd1989bd	-0.037484873
18	0x3d5cc2fe	0.053896897
19	0xbd18ab2d	-0.03727262
20	0x3d93f864	0.07225111
21	0xbddfd035	-0.10928384
22	0xbcf4c5ee	-0.029879536
23	0xbd10ef44	-0.03538443
24	0x3d8fbcf0	0.07018459
25	0xbce6d224	-0.028176375
26	0x3d260e1e	0.040540807
27	0xbd96579a	-0.073409274
28	0x3df5d888	0.12004191
29	0xbd032b64	-0.032023802
30	0x3e0fd2f6	0.14045319
31	0xbc3502f6	-0.011048069
32	0x3d01ffef	0.031738218
33	0x3b169b11	0.002298061
34	0x3d7ba24a	0.061434068
35	0xbc048ed6	-0.008090695
36	0x3c830e13	0.015997922
37	0xbdfb60c9	-0.1227432
38	0xbda09005	-0.078399695
39	0xbdb7259c	-0.0894272
40	0xbdcd942f	-0.100380294
41	0xbd02094d	-0.03174715
42	0xbccb3594	-0.024805821
43	0xba912866	-0.0011074662
44	0xbd7c7c19	-0.061641786
45	0x3d3ef9ab	0.04662482
46	0x3bb771f7	0.0055983025
47	0xbe53fca6	-0.20701846
48	0xbbe9f70f	-0.0071400474
49	0x3d209f3d	0.03921436
50	0x3d149f36	0.036284648
51	0xbdab2f55	-0.08358637
52	0x3d9f13ff	0.07767486
53	0xbd3543fa	-0.04425428
54	0x3d523aee	0.05132573
55	0x3d39efdd	0.045394767
56	0xbe294ac6	-0.1653243
57	0x3c4988ba	0.012300665
58	0xbd3d8f81	-0.046279434
59	0xbccc8a32	-0.02496824
60	0x3d83ffcf	0.06445276
61	0x3d09b682	0.03362132
62	0x3d9307af	0.071792
63	0x3da1bd64	0.078974515
64	0x3e127be2	0.1430507
65	0x3b8511a4	0.004060941
66	0xbd81300f	-0.063079946
67	0x3e048509	0.12941374
68	0xbd70423a	-0.05865691
69	0x39d0c35f	0.00039818414
70	0xbd8eedd5	-0.069789566
71	0xbe27e0db	-0.1639437
72	0xbd872b0c	-0.066000074
73	0xbc572223	-0.013130697
74	0x3d2e81e8	0.042604357
75	0xbdfcef48	-0.12350327
76	0xbc892c8e	-0.016744878
77	0x3dc0b1d9	0.09408922
78	0x3d530082	0.051514156
79	0xbd523fcf	-0.051330384
80	0xbdfca759	-0.123366065
81	0xbd27fce5	-0.041012663
82	0xbcfc8ce9	-0.03082891
83	0xbd3f3ca9	-0.04668871
84	0x3d40763f	0.04698777
85	0xbc022511	-0.007943408
86	0x3d2292e1	0.039690856
87	0xbd9f7c68	-0.077874005
88	0xbd3c67d6	-0.045997463
89	0xbd84ca58	-0.064839065
90	0xbd4b4310	-0.049624503
91	0xbcfd4080	-0.030914545
92	0x3cd31513	0.025766885
93	0xbde0c1e3	-0.10974481
94	0x3da74f85	0.08169464
95	0xbcf5cdb9	-0.030005323
96	0x3deaedd6	0.11471145
97	0xbdba2978	-0.09089941
98	0x3d7e047f	0.062016007
99	0x3dbed48c	0.09317884
100	0xbd2e7b83	-0.04259826
101	0x3b84c99b	0.0040523536
102	0x3d0d2aed	0.034464765
103	0x3d89795c	0.067126006
104	0xbe1291fa	-0.14313498
105	0x3ddce1f9	0.10785288
106	0x3d99d464	0.075112134
107	0xbd88ad30	-0.06673658
108	0x3defe748	0.11714035
109	0x3e147475	0.1449755
110	0xbd262b7f	-0.040568825
111	0x3d913f27	0.070921235
112	0x3d164b02	0.036692627
113	0xbd8f4fb5	-0.06997625
114	0xbb9f9b93	-0.004870841
115	0xbde2d2f9	-0.11075396
116	0xbcead12e	-0.028664198
117	0xbd1d5c53	-0.038418125
118	0x3cae8add	0.02130645
119	0xbdacd8e8	-0.08439809
120	0xbda03f8c	-0.078246206
121	0x3d6ac372	0.057315297
122	0xbd8a9b4e	-0.06767903
123	0x3c74b2e9	0.014935234
124	0xbd035d5b	-0.032071453
125	0x3d7615cb	0.060079377
126	0x3d932a12	0.07185759
127	0xbde3482c	-0.1109775
128	0xbcc03864	-0.02346439
129	0xbd1a08c0	-0.037606
130	0xbda78dc2	-0.08181335
131	0x3e1c1002	0.15240481
132	0x3d2eab75	0.042643983
133	0xbd498a5d	-0.04920422
134	0xbd294ce5	-0.041333098
135	0x3da02c6b	0.07820972
136	0x3cd987fc	0.0265541
137	0x3d3dafc2	0.046310194
138	0xbcc53c8f	-0.024076728
139	0x3e324fea	0.17413297
140	0xbd1d6005	-0.03842165
141	0xbd650961	-0.055917148
142	0x3d51fc1d	0.051265825
143	0xbbadb685	-0.005301299
144	0x3dc116cd	0.09428177
145	0xbdacdfbb	-0.08441111
146	0xbc773104	-0.01508737
147	0x3d9a480a	0.075332716
148	0xbd47ad13	-0.04874904
149	0x3d1d6fa0	0.038436532
150	0x3d39c635	0.04535504
151	0x3d355ca5	0.044277806
152	0xbde62dd3	-0.11239209
153	0x3e0ec0b3	0.13940696
154	0xbd601a44	-0.05471255
155	0x3dbb2119	0.09137172
156	0xbdda0b3c	-0.10646674
157	0x3d6456c0	0.055746794
158	0x3d67fa4a	0.05663518
159	0x3df9c946	0.12196593
160	0xbbf58f39	-0.00749388
161	0x3db9920d	0.0906106
162	0xbc709f00	-0.014686346
163	0xbd2c478f	-0.04206043
164	0x3de08333	0.10962524
165	0xbc8ed2ef	-0.017434565
166	0x3df8b07d	0.121430375
167	0x3dbb7e70	0.091549754
168	0xbd0d5698	-0.03450641
169	0xbd96086c	-0.07325825
170	0x3e38dacd	0.18052216
171	0xbccf9a8f	-0.025342254
172	0x3c26da4e	0.010183884
173	0x3bae9278	0.005327519
174	0x3e29a675	0.16567405
175	0xbdce3b97	-0.100699596
176	0xbd9d0519	-0.07666988
177	0xbc9bb733	-0.019008255
178	0x3ce9d0ca	0.028541941
179	0x3e706353	0.23475389
180	0xbd9629a7	-0.07332163
181	0x3d29eabf	0.041483637
182	0xbdc49b33	-0.095999144
183	0x3db7d3b0	0.08975923
184	0xbd8895b6	-0.0666918
185	0xbafce77e	-0.0019295064
186	0xbd4bf07c	-0.04978989
187	0xbe2faa80	-0.17154884
188	0x3db516b7	0.08842223
189	0x3e074a1b	0.13211863
190	0xbe3043fb	-0.17213432
191	0xbd943408	-0.07236487
192	0xbd90a19c	-0.070620745
193	0x3dc7d494	0.09757343
194	0xbd32ffc9	-0.043700967
195	0x3d8ad35a	0.06778593
196	0x3df08591	0.11744226
197	0x3ca45a54	0.020062603
198	0x3cbed9f5	0.02329729
199	0x3ca2510d	0.019814039
200	0xbd5f4907	-0.054513004
201	0x3d411d44	0.04714705
202	0x3c6944f7	0.014237634
203	0x3c2f3f57	0.010696254
204	0xbe06c2d1	-0.13160254
205	0x3d05bf20	0.032652974
206	0x3cf91ff4	0.030410744
207	0xbd83d870	-0.064377666
208	0xbdb022d3	-0.08600392
209	0x3d0773ab	0.033069294
210	0x3db39bf8	0.08769983
211	0xba3fc501	-0.00073154276
212	0x3ca3407a	0.019928206
213	0xbdd8ca47	-0.10585456
214	0xbcabb597	-0.020960612
215	0x38287689	4.0164716e-05
216	0xbd98b3d2	-0.07456173
217	0xbde9b807	-0.114120536
218	0xbd9cc139	-0.07654042
219	0xbda8413b	-0.08215567
220	0xbd15eba7	-0.03660169
221	0x3dbda007	0.092590384
222	0xbca30c72	-0.019903395
223	0xbd6c8377	-0.057742562
224	0x3de89ef0	0.1135844
225	0xbe003a56	-0.12522253
226	0xbd7d462a	-0.06183449
227	0x3dfc42a1	0.12317396
228	0xbdcf9a3b	-0.10136839
229	0x3a8b9678	0.0010649702
230	0x3dbeff2a	0.093260124
231	0x3d5e6a9e	0.054300897
232	0xbdb7c3e9	-0.08972914
233	0xbd36f238	-0.04466459
234	0xbd06d024	-0.032913342
235	0xbdb1379c	-0.08653185
236	0x3d860b1f	0.0654509
237	0xbc0a8f99	-0.008457088
238	0xbe1ac358	-0.1511358
239	0x3db50b2c	0.088400215
240	0xbda65d39	-0.081232496
241	0x3dd5b721	0.1043532
242	0x39f2bcef	0.00046298603
243	0xbccbbcbc	-0.024870269
244	0x3dfd8e07	0.12380605
245	0x3a1adaa3	0.0005907213
246	0x3ad99754	0.0016600885
247	0xbdf00040	-0.11718798
248	0xbd38768f	-0.04503494
249	0x3e18d4b2	0.14924887
250	0x3d023286	0.031786464
251	0x3dc8e4e0	0.098092794
252	0x3e08e390	0.13368058
253	0x3dac06a1	0.08399702
254	0xbc970656	-0.018435638
255	0xbd0439db	-0.032281738

fc2.bias f4 [128]
0	0x3e3af017	0.1825565
1	0x3e02086b	0.12698524
2	0x3e6116f4	0.21981412
3	0xbd970ace	-0.07375108
4	0xbcf8b95a	-0.03036182
5	0x3e832791	0.25616124
6	0x3db1359b	0.086528026
7	0xbe033560	-0.1281333
8	0x3df68701	0.12037469
9	0xbc45e5cf	-0.012078716
10	0xbdba52e5	-0.09097842
11	0xbd16fb0e	-0.03686052
12	0xbdf70e22	-0.120632425
13	0xbdec8935	-0.11549608
14	0xbce28f97	-0.02765636
15	0xbe15efde	-0.14642283
16	0x3e3d808c	0.18506068
17	0xbba4b0fb	-0.0050259805
18	0x3e66142d	0.22468634
19	0x3e048831	0.12942578
20	0x3e84e334	0.25954592
21	0x3e8b1885	0.27167144
22	0xbdb01a35	-0.085987486
23	0xbd82dab2	-0.06389369
24	0x3d654763	0.055976283
25	0xbc55a4f0	-0.013039812
26	0x3e348b1c	0.17631191
27	0x3dc389e7	0.09547787
28	0xbcc21776	-0.023692828
29	0xbd249edf	-0.040190574
30	0x3e440234	0.19141465
31	0x3b7384e1	0.003715806
32	0x3df3078d	0.118666746
33	0xbe18b973	-0.14914493
34	0xbd89f8f6	-0.06736939
35	0xbdb1d74e	-0.08683644
36	0xbd533e23	-0.05157293
37	0x3d8a458d	0.06751547
38	0x3e922e21	0.2855082
39	0xbc271cdd	-0.010199753
40	0x3e258d0f	0.16167091
41	0xbc2dbc3b	-0.01060396
42	0x3d1a2db6	0.03764125
43	0xbe160c69	-0.14653172
44	0x3ccd3e60	0.025054157
45	0x3e2498eb	0.16073959
46	0x3e6aa654	0.22915012
47	0x3dba4ae8	0.090963185
48	0x3e24cf32	0.16094664
49	0xbd8c32cb	-0.068456255
50	0xbe10f255	-0.14154942
51	0xbdd0d426	-0.10196714
52	0x3bdeedd4	0.0068032537
53	0xbdd068ac	-0.101762146
54	0xbdf98f13	-0.12185492
55	0xbdee1f4a	-0.11627062
56	0x3e8c8cd6	0.274512
57	0xbd201885	-0.039085884
58	0xbdb32fa2	-0.087493196
59	0x39a535f9	0.00031511465
60	0xbe1971bc	-0.14984792
61	0x3e457372	0.1928232
62	0x3e362199	0.17786254
63	0x3df8ffcc	0.121581644
64	0xbd877b13	-0.066152714
65	0x3dfeae1c	0.124355525
66	0xbd026109	-0.03183082
67	0x3e04163a	0.12899104
68	0x3e005ca6	0.12535343
69	0x3be34bef	0.006936542
70	0xbcbd9f54	-0.023147263
71	0xbcb54039	-0.02212535
72	0x3de32bdc	0.1109235
73	0x3dee24c2	0.11628105
74	0xbdb6c368	-0.089239895
75	0xbcd66ab0	-0.02617392
76	0x3e823d95	0.25437608
77	0xbe0b313a	-0.13592997
78	0x3ddc5144	0.10757688
79	0xbe0dad47	-0.13835631
80	0x3e88ddc7	0.26731703
81	0x3e6f3525	0.23360117
82	0xbdd63c30	-0.104606986
83	0x3d525b1f	0.05135643
84	0xbdd1cfbd	-0.10244701
85	0x3e78a4bf	0.24281596
86	0xbc1055fe	-0.008809565
87	0x3e3ef74c	0.18649024
88	0x3e65b7a7	0.22433339
89	0x3e4dad8e	0.20085737
90	0x3d2cbe16	0.042173468
91	0x3e1587b0	0.14602542
92	0xbd057680	-0.032583714
93	0x3c8b2961	0.016987504
94	0x3e41be52	0.18920258
95	0x3e1e7b3e	0.154767
96	0xbe2b65e3	-0.16738085
97	0x3e2400bf	0.1601591
98	0x3e2f0052	0.17089966
99	0xbe114197	-0.14185177
100	0x3bc0ff5b	0.0058898157
101	0x3d9f3f38	0.0777573
102	0xbe12c7b7	-0.14333998
103	0x3e367c7f	0.17820929
104	0xbde145b2	-0.109996215
105	0xbc042a0d	-0.008066666
106	0x3d74771a	0.059683897
107	0xbe077149	-0.13226809
108	0x3e275bba	0.16343585
109	0xbd8bdcf9	-0.068292566
110	0x3dc855cc	0.097819895
111	0xbd21f354	-0.039538696
112	0xbd4c4c55	-0.049877483
113	0x3dda2dd0	0.10653269
114	0x3ea68359	0.32522085
115	0x3dfdadeb	0.12386688
116	0x3b76d636	0.00376643
117	0x3d77f2d2	0.060534306
118	0xbe24c551	-0.16090895
119	0x3dc1ff96	0.09472577
120	0xbdb94963	-0.090472005
121	0x3e63e2c7	0.22254477
122	0x3df6e3d3	0.12055173
123	0x3e024407	0.12721263
124	0xbdc2ccdf	-0.09511732
125	0xbe5164b3	-0.2044857
126	0xbe2a17e2	-0.16610673
127	0xbbb77135	-0.005598212

fc3.weight f4 [1, 128]
0	0x3d9f6e22	0.07784678
1	0x3e0a861e	0.13527724
2	0x3da4b069	0.0804146
3	0xbebb6e36	-0.36607522
4	0xbecc1e4d	-0.39866868
5	0x3dc0bd33	0.09411087
6	0x3e02e96d	0.12784357
7	0xbea2167b	-0.31657776
8	0x3da0b5d1	0.07847179
9	0xbe8f9a02	-0.28047186
10	0xbe243a36	-0.1603783
11	0xbe3458d6	-0.17612013
12	0xbe827f99	-0.25487974
13	0xbec09dc7	-0.37620375
14	0xbedb4a04	-0.42829907
15	0xbe86bee7	-0.26317522
16	0x3dc45a31	0.09587515
17	0x3e8aada1	0.27085593
18	0x3dab4668	0.08363038
19	0x3dcca740	0.09992838
20	0x3d91781f	0.071029894
21	0x3e08cc72	0.1335924
22	0xbec29a96	-0.38008565
23	0xbec62ef9	-0.38707712
24	0xbeaaf026	-0.33386344
25	0xbe3a54c1	-0.18196394
26	0x3e3e5a6b	0.18589179
27	0x3e3acf2e	0.18243095
28	0xbed1de1c	-0.40989769
29	0xbf09fcf5	-0.53901607
30	0x3de249f2	0.1104926
31	0xbe5162b7	-0.20447813
32	0x3e1e49e8	0.1545788
33	0xbe9133ce	-0.28359836
34	0xbe83fec8	-0.2578032
35	0xbec4d49c	-0.38443458
36	0xbe7e3ab8	-0.24827087
37	0x3e3bb572	0.18330935
38	0x3e193000	0.14959717
39	0xbec8a90f	-0.3919148
40	0x3db6d845	0.08927969
41	0xbeb742cc	-0.3579315
42	0x3e6ad693	0.22933416
43	0xbeaf4752	-0.342341
44	0x3eb04034	0.34423983
45	0x3e0c14ce	0.13679811
46	0x3d9b2997	0.07576292
47	0x3e7fc9df	0.24979351
48	0x3e858ca4	0.26083863
49	0xbea83f07	-0.32860586
50	0xbe83f4fe	-0.25772852
51	0xbed2201f	-0.4104013
52	0xbeb53ba3	-0.35397062
53	0xbf098f95	-0.53734714
54	0xbe991953	-0.29902133
55	0xbf135ae6	-0.57560575
56	0x3db3b291	0.08774293
57	0xbe228aa9	-0.15873207
58	0xbea9f981	-0.3319817
59	0xbeded9dd	-0.43525591
60	0xbe838ba6	-0.2569248
61	0x3dcd5d81	0.100276
62	0x3e313c35	0.17308123
63	0x3e696090	0.22790742
64	0xbea07ec8	-0.31346726
65	0x3e1f813f	0.15576647
66	0xbea7cbda	-0.32772714
67	0x3dd6ebe3	0.104942106
68	0x3df0f99b	0.117663585
69	0xbe883178	-0.26600242
70	0xbeb959be	-0.3620128
71	0xbebc4199	-0.36768797
72	0x3e48d779	0.19613446
73	0x3d9d8607	0.07691579
74	0xbec494d7	-0.38394806
75	0xbe22da58	-0.15903604
76	0x3d97b61d	0.07407782
77	0xbeb3f783	-0.35149774
78	0x3dd62f6c	0.10458264
79	0xbe88a33c	-0.26687038
80	0x3e0aa833	0.13540725
81	0x3d9ea78c	0.07746801
82	0xbe153a5d	-0.14573045
83	0x3e9823f8	0.29714942
84	0xbe8b2bab	-0.27181754
85	0x3da33257	0.07968586
86	0xbefc2c95	-0.49252763
87	0x3de85f8a	0.11346348
88	0x3e6e6ea3	0.23284392
89	0x3d8d37cd	0.06895409
90	0xbdec81d2	-0.11548199
91	0x3dccac74	0.0999383
92	0xbec0dee8	-0.37670064
93	0xbec54de1	-0.3853598
94	0x3d9351cf	0.07193338
95	0x3de598e0	0.11210799
96	0xbe895354	-0.26821387
97	0x3da81443	0.082069896
98	0x3df426f7	0.119214945
99	0xbe829628	-0.25505185
100	0x3e47b6e2	0.19503358
101	0x3e1fa503	0.1559029
102	0xbe1438e3	-0.14474826
103	0x3ddef30c	0.10886201
104	0xbebdeac3	-0.3709317
105	0xbe2ef1a9	-0.17084374
106	0x3e6c712d	0.23090048
107	0xbeb53502	-0.35392004
108	0x3de88926	0.11354284
109	0xbdcec04f	-0.10095274
110	0x3e00c6f7	0.12575899
111	0xbef05452	-0.4693933
112	0xbe6af667	-0.22945558
113	0x3ddaa6c6	0.10676341
114	0x3dc2c532	0.09510268
115	0x3e517c45	0.20457561
116	0xbecb592b	-0.39716467
117	0x3e19fa11	0.15036799
118	0xbe6826bd	-0.22671027
119	0x3de01968	0.10942346
120	0xbe858e5c	-0.26085174
121	0x3dbc1d9a	0.091853335
122	0x3e28eff1	0.1649778
123	0x3e082b49	0.13297762
124	0xbe89d2de	-0.2691869
125	0xbe320b66	-0.1738716
126	0xbe74c4cd	-0.23903199
127	0xbeaeba5b	-0.34126553
