checkpoint_actor.pth (torch_old, 169458 bytes, 6 tensors)

fc1.weight f4 [256, 33]
00000000: 7e14 a9bd b5a5 313e 0043 75bd d92a 47be
00000010: 3b08 d73d e7f7 d13d 5e9d 8cbc f4ca 753d
00000020: 7a20 f3bb faa5 613d 0a1c 09be 59bb 94bc
00000030: c433 873d 277a efbd 19f1 b23d dcfc 283e
00000040: 6d76 c3bb 41c0 993d 37fa 92bd 6917 e63d
00000050: 7a4a 9b3d f756 0c3e 8abc 96bd 6f81 06be
00000060: 5f97 1b3e ffd2 123e 6e4c 33be 27d5 a13d
00000070: 9bd8 c2bd 702a 013d 54e5 3bbd 7400 e93c
00000080: 8d0a b2bf fb49 bd3d c00a 6d3e 44b0 be3c
00000090: 4978 c93d 1d0b 45be ec4e 9ebe 4419 763e
000000a0: 49ab 98bd 87c8 bc3d 4697 eb3e b740 833e
000000b0: 7420 783d ab70 00bc ad52 763e 616e d73c
000000c0: 4959 653d d73c a83e 0919 253e e4f0 be3d
000000d0: f4b8 443e c078 b6bd ecae ad3d 8eeb cabd
000000e0: 8587 c23d 39f3 e8bc 4a68 36bd 5789 d7bc
000000f0: a3d4 24bd 7538 2b3e ca5b 71bd 7886 543d
00000100: 1a4e 543d 3d07 33bf f73c 7a3c c190 20bc
00000110: 9ccc 363e 763e 3e3e fb97 17ba 5225 a83d
00000120: 31bd 1a3d ae1c f83a 70c2 84bd 8be1 bebd
00000130: ff71 cb3c 708c 6b3c dcbb 8e3d cea6 2d3e
00000140: 8e91 27be 9a0c 693d 85e3 143e 60d8 17be
00000150: 2b44 be3d 13de a03d 736a c03d 4b0a 1ebd
00000160: e9a1 d83d 441a f23d 092c 27bd e531 a039
00000170: c99d f83c 258d 44bc 76cd 823d 2841 063d
00000180: 2ef7 4dbd 7ca1 12bd c609 863f ae70 1d3d
00000190: 5ad9 1dbc 2e97 51bd 1bc7 cdbc 229b a9b9
000001a0: 04c1 493e 6345 9f3b d9b5 30be ca0b 05be
000001b0: 17b2 9f3d 9b8e 8f3c 1a87 c3bc 0050 59bd
000001c0: 219b 08bd 02ae 613e 4cdc b0bc b5b2 80bd
000001d0: cd10 0abe 383a 863c dc02 2e3e b1b0 0a3d
000001e0: 41a3 6a3d f3e2 a6bd 557c 313e 8c95 8e3c
000001f0: fd3f 633d 6d5d 723e 6afb e13d 499a 183e
00000200: 8c51 63bd a061 a5bd 38cd 34bd 0988 ba3f
00000210: 341a 283e a14e 003e a1c6 f83b 5dbe 853c
00000220: 7f4e 243d ebf5 34be 9a9f 4c3b 1634 03be
00000230: 8551 21be b4f0 87bd 96bc e6bd ab7e 39bc
00000240: a774 b8bd 692c 263d 285a 823e e39f 05be
00000250: deb9 41be e357 8fbe 49b9 e0bd b574 92be
00000260: 781c af3d 75ae 693c 3829 a93b 2f6f 7abd
00000270: 9917 e03d ae7d 74be c9cb f93d 67d5 053e
00000280: 24f6 4e3e b84f 373c acd1 f3bd 28a8 743d
00000290: 4fca 213f 1f7e 763e bebb b4bd 60fc 6bbe
000002a0: 64c5 493e 0baf b43e 91d7 143e f24a b1bc
000002b0: dcbf a2bd ad80 fa3d 7e58 433e 7e38 b83d
000002c0: 8e9d bcbd a6be ffbd fd90 60bb d4ca c8bc
000002d0: 2611 853d 706e 77be 8258 73be f971 423c
000002e0: 3f5b 53be 09b6 a3bd 18f8 c33d f6d3 b43b
000002f0: f4db 9bbd 7c67 803d 943a 30be c117 85bd
00000300: 59fb f9bd 2bc4 a3bd e88c bf3c d731 e73d
00000310: b44c 823c 44fa 45be 5fb1 eebd 1900 873d
00000320: f2da 3fbe 2751 f73d b6fe ffbd 49a4 a1be
00000330: 44e8 3a3e 3f78 403d 5468 8fbe 7961 043e
00000340: 62cc b6bc 1fb3 78be 3670 17be f108 dabd
00000350: 60e3 ae3d b2c3 fe3d 0dd6 5dbd abf6 60be
00000360: 9ccc 0dbe 28d5 813e 16cd 95bd b7f2 6fbe
00000370: 2c67 0abd 35de 863d 7ea4 a6bd e1b9 84bd
00000380: 899a 733e 359d e13d 1752 0fbe 90ba 223d
00000390: 71e1 2abe 3880 463c b81e 97be 1193 2d3a
000003a0: 005d c23d e7cc 863d 1162 eb3d 95a1 75be
000003b0: d11f 893c 2bb7 3b3e 6fd5 6b3d 2e27 cabd
000003c0: 8124 29be 735b df3c 475f 10bd 8f6e 693d
000003d0: 66ed 223e d6ea 9abd 6a4a 0a3d 5cde 933e
000003e0: fdd1 4a3e edcd c4bd 10d2 49bc c6d9 213d
000003f0: 7ac5 853d 18a2 493c 81c3 c43c 6fdd a1bb
-0.08255862 0.17348368 -0.05987835 -0.19449939 0.10499617 0.10252362 -0.017164882 0.060008004
-0.007419643 0.05508993 -0.13389602 -0.01815574 0.066016704 -0.116932206 0.08737392 0.16502708
-0.005965045 0.07507373 -0.07176631 0.11234934 0.07582565 0.1370505 -0.0736018 -0.13135312
0.15194462 0.14338301 -0.17509624 0.07901984 -0.095139705 0.031534612 -0.045873 0.028442599
-1.390947 0.09242626 0.23148632 0.02327741 0.09837396 -0.1924252 -0.30919588 0.24033076
-0.07454545 0.09217935 0.4601385 0.2563531 0.060577825 -0.007839362 0.24054976 0.02629775
0.055993352 0.32858917 0.16122831 0.0932329 0.19211179 -0.0890975 0.08480629 -0.0990821
0.094985045 -0.02843629 -0.04453305 -0.026310606 -0.04024185 0.16720755 -0.058925427 0.051886052
0.051832296 -0.6993292 0.015273324 -0.009800137 0.1785149 0.18578514 -0.000578284 0.08210243
0.037778083 0.0018929446 -0.064823985 -0.09320363 0.024834631 0.014376745 0.06969425 0.16958162
-0.16364118 0.056896783 0.14539917 -0.14828634 0.09290346 0.07854857 0.093953036 -0.038584035
0.10577757 0.11821416 -0.04081348 0.00030554752 0.030348675 -0.011996542 0.06386845 0.03277698
-0.050284557 -0.035798535 1.0471733 0.038437538 -0.00963434 -0.051169567 -0.025119355 -0.00032349775
0.19702536 0.0048605665 -0.1725687 -0.12992778 0.0779764 0.017524054 -0.023868132 -0.05305481
-0.033351067 0.22039035 -0.02158942 -0.06284086 -0.13482971 0.016385183 0.16993278 0.033859912
0.057284597 -0.08148756 0.17332585 0.017405294 0.055480946 0.23668452 0.110342816 0.14902605
-0.05549769 -0.08075261 -0.044141024 1.4572765 0.16416246 0.12529995 0.007592038 0.016326124
0.040113922 -0.17671935 0.003122306 -0.12812838 -0.15753753 -0.06637707 -0.11266439 -0.011321704
-0.09006625 0.040569697 0.2545941 -0.13049273 -0.18918559 -0.2799674 -0.1097284 -0.28604665
0.08550352 0.014262785 0.0051623844 -0.06114119 0.10942001 -0.23876068 0.12197072 0.13069688
0.20211083 0.01118844 -0.11905226 0.05973068 0.63199323 0.24071549 -0.088248715 -0.23045492
0.19704205 0.35289797 0.14535357 -0.021642182 -0.079467505 0.12231574 0.19076726 0.0899515
-0.09209739 -0.12487535 -0.0034266107 -0.024510778 0.064974114 -0.24163222 -0.23764232 0.0118679935
-0.20640276 -0.07993705 0.095688045 0.005518432 -0.07610312 0.06269738 -0.17209846 -0.06498671
-0.12206144 -0.079964004 0.023382619 0.11288803 0.015905716 -0.1933375 -0.116549246 0.065918155
-0.18735865 0.120760255 -0.12499754 -0.31570652 0.18252665 0.046989676 -0.28009284 0.12927808
-0.022314254 -0.2428708 -0.14788899 -0.10646237 0.08539462 0.1243967 -0.054159213 -0.21969096
-0.13847584 0.25357938 -0.07314508 -0.23432432 -0.0337898 0.065853514 -0.08136843 -0.06480766
0.23789419 0.11016313 -0.13996159 0.0397287 -0.16687562 0.012115531 -0.29515624 0.0006621341
0.094903946 0.06582051 0.11493314 -0.2398742 0.016738804 0.18331592 0.057576593 -0.09870754
-0.16517831 0.027265286 -0.035247114 0.056990203 0.15910873 -0.07564323 0.033762373 0.28880584
0.19806667 -0.0960959 -0.012318149 0.039514326 0.06531806 0.012306713 0.024019005 -0.004939727

fc1.bias f4 [256]
00000000: c6e3 243d 55ef 673e 0c6d 2abd 0226 e53c
00000010: b1a1 31be 2b8a 46bd 6adf 8bbe 5208 25be
00000020: f921 77bd e6a8 0b3d 9de5 aebe 3e34 bc3c
00000030: 9249 013e 97c7 20be bd7b dcbc a29e e93d
00000040: a198 003d 5a41 05be da9a 203e 3668 8abd
00000050: 922c d6bc e1b3 213e 6167 16be e51c 54bc
00000060: c762 1b3e 3750 d5bd 56cb a73d 4c72 3fbd
00000070: f6d1 d4ba 959c 423e 21ff 5fbc ae84 82be
00000080: 67d3 b5be 0b9a 833d 5fac 6a3c 5d5f e6bc
00000090: 8dd0 a9ba 217d 7a3e 2970 8abd 505d f33d
000000a0: 7f01 e1bd 6260 c2b9 97aa 5d3e 78b9 2dbe
000000b0: 8785 c83c 6fc4 7bbe 3ddb 913d 5fba eebc
000000c0: 9117 3dbd 41d8 3c3c 3576 dc3d 85a3 5f3d
000000d0: 61ee cabc fa6f 36be e398 76ba 4a74 823e
000000e0: bac4 aabe 3fdb 513d 7a71 0e3e 6fa3 563d
000000f0: a77c e0bd cf0a 253e 76f5 53be f613 11be
00000100: 0824 b4bd 8f93 80be adbe 4abc 5cfc a4bc
00000110: b2c0 fd3c c2e9 243e e3b4 753d 0da3 dc3d
00000120: 51ea 3ebe dd5d b8bd df6b 293e 5622 0a3e
00000130: 9727 503e b6da 48bc 0379 4c3e fad1 c8bc
00000140: 82c5 933d 99ab 723d 1c1f eebd 6ca2 893d
00000150: 26e7 c5bc 8543 4abd 27e1 e23d e839 b8bd
00000160: 9aa2 2f3e 1ac5 3f3e 374b 34bd b6fb c7bb
00000170: 1153 dd3d c9d3 5abe d660 90be 8128 483e
00000180: f7b0 b83d 3ae2 00be 6210 aa3e 7f94 293c
00000190: e23a 71bc f9f9 adbc 84d3 df3d 11ac 6dbe
000001a0: 00f0 d6bd a179 953d e60a 74be f982 cb3c
000001b0: c5e3 a13d b54d ffbd 9e64 793e acc3 8a3e
000001c0: 4632 4dbe f956 8e3a b196 51bd 97dd 38be
000001d0: bfb9 753e 2e90 c5be 11dc 33bd 7de3 3abd
000001e0: 15bc 983d 1ab8 5a3d 08f8 03be 964d 01bd
000001f0: a5f3 28be 6834 03be cba1 32be c55f 253d
00000200: c006 d7bc af6e 353e cdf1 28bd e728 a8be
00000210: 4e2c d6bc 7657 cd3d 7743 febd 9c77 09be
00000220: 9597 21be 358a 9d3d e772 fabc d59a 93be
00000230: 75d1 733e 9226 2abe feca 63bc 6d94 22be
00000240: dcd8 3b3d 7bac 9ab9 a650 18bd 63e3 b03d
00000250: 64b3 373e 16c5 33bd a6eb e8bd c83f 10bc
00000260: 4a2b 8a3d 90ca 0dbd 7c89 763e d139 78bd
00000270: 0d8a e63d 35d0 07bd b360 9a3b 24ea 1cbe
00000280: 224c e93c 6b4b fabd 5f08 b7bb 64a9 f0bd
00000290: 3398 bd3d c523 313e 22b7 753e 9ecb 8f3d
000002a0: e331 fdbd 80d0 9f3e c348 dc3d 3f78 5a3e
000002b0: 60f4 6abb 3972 183e 57fa 903d 2c4d 0e3d
000002c0: 85af 7f3d f81d a03d 7882 a93d ee86 e03c
000002d0: 4214 72bd 4753 363d 471e 78be ef16 3b3e
000002e0: dbb8 f53c 2cf9 dabc 829b 75bc bdb3 5fbc
000002f0: 8593 abbd d7a6 953e f795 92bd 31cc 593e
00000300: 5693 823d 6b14 b63d 9915 cd3d 59c0 06be
00000310: d4c8 80be 6a84 17be a214 ccbd ec5b 66be
00000320: 429e a9bc e8b9 8a3d bd4b cebc 48b4 a33d
00000330: f508 673d 844d a33c 621a 793d 53d2 debd
00000340: 38f8 62bd fc0f 263c 10a9 773e 57e2 1b3e
00000350: c8b0 2b3e 11ad ce3d 46be 433d b002 013e
00000360: 725a 683e 31d9 debd d73a 15be 8667 313d
00000370: b287 d53d 3742 a7be 3706 87be a7d9 06be
00000380: 78bf df3c c3c9 f93c 9a56 efbc 0b52 92bd
00000390: 2b9f 59be 67ff 8ebc c129 27be 8623 38bd
000003a0: 2f48 91be bd1c 0cbe d871 a43e 1ab3 f4bd
000003b0: 9af2 8d3d 7cac 453d e5a0 a4bd be73 b8bd
000003c0: 9b48 873d 884d 17bd 2322 493e ea83 48be
000003d0: 9411 233d 5fb1 523d 52b3 343e 93fb be3d
000003e0: b657 a33d 63db 14be f1bd bb3c e333 24be
000003f0: 9cbb 2a3e 5640 9dbc ca03 893e abac 653e
0.040256284 0.22649892 -0.0416079 0.027972225 -0.17346837 -0.04847161 -0.2731889 -0.16116455
-0.060335133 0.03409662 -0.34159556 0.02297413 0.12625721 -0.15701137 -0.026914472 0.1140721
0.03139556 -0.13013211 0.15684071 -0.06758158 -0.0261443 0.15791275 -0.14687873 -0.012946342
0.151744 -0.104156904 0.0819308 -0.04673986 -0.001623689 0.19005044 -0.013671667 -0.25491852
-0.3551285 0.06425866 0.014323323 -0.028121645 -0.001295583 0.24461795 -0.06759674 0.11883032
-0.109866135 -0.00037074374 0.21647106 -0.16965282 0.024477733 -0.24586652 0.071218945 -0.029141603
-0.046165053 0.011526168 0.10764734 0.054599304 -0.024771871 -0.17816153 -0.0009406937 0.25479347
-0.33353215 0.05123448 0.13910475 0.052401956 -0.109612755 0.16117404 -0.20699105 -0.1416777
-0.08795935 -0.25112578 -0.012374562 -0.020139866 0.030975673 0.16104797 0.05998696 0.10773287
-0.18644072 -0.09002278 0.16545056 0.1348966 0.20327602 -0.012259176 0.19968037 -0.024514187
0.07215406 0.05924568 -0.116270274 0.06720433 -0.024158072 -0.049380798 0.11078101 -0.0899542
0.17151871 0.18727532 -0.044017043 -0.0061030043 0.10806859 -0.21369852 -0.2819888 0.19546701
0.09018128 -0.12586299 0.33215624 0.010350346 -0.014723511 -0.02123736 0.10929015 -0.2321017
-0.10494995 0.072985895 -0.23832282 0.024842726 0.07904772 -0.12465993 0.24354789 0.2710241
-0.20038709 0.001085966 -0.0511691 -0.1805328 0.23996638 -0.38586563 -0.043911044 -0.045627106
0.07457749 0.05339823 -0.12887585 -0.031568132 -0.16499193 -0.1281296 -0.17444532 0.040374536
-0.026248336 0.17718004 -0.041246224 -0.32843706 -0.026144173 0.100264475 -0.12415212 -0.13424534
-0.1578048 0.076923765 -0.030572368 -0.28829065 0.2381037 -0.16616276 -0.013903378 -0.15876932
0.04586111 -0.00029501677 -0.037186287 0.086371206 0.17939526 -0.043889128 -0.11373071 -0.008804269
0.06746538 -0.034617007 0.24075884 -0.060602013 0.112568 -0.033157546 0.0047112345 -0.15323693
0.028478686 -0.12221416 -0.0055857147 -0.11751059 0.09257545 0.17298801 0.23995641 0.07021259
-0.12363031 0.3121376 0.10756066 0.21334933 -0.0035851225 0.14887322 0.070789985 0.034741566
0.062423248 0.07818216 0.08276838 0.02740809 -0.05910135 0.044513013 -0.242303 0.18270467
0.029995373 -0.026730143 -0.014990689 -0.013653693 -0.083777465 0.2922885 -0.0715751 0.21269299
0.06375758 0.08890613 0.10013885 -0.13159312 -0.2515322 -0.14796606 -0.09964873 -0.22496003
-0.020705346 0.0677374 -0.0251826 0.0799337 0.056405026 0.019934423 0.060816176 -0.1087996
-0.0554125 0.010135647 0.24185586 0.1522306 0.16766655 0.100916035 0.04778888 0.12598681
0.22690752 -0.1088127 -0.14573227 0.04331162 0.104262725 -0.32667705 -0.2637193 -0.13168965
0.02731298 0.030491715 -0.0292161 -0.07144555 -0.21252124 -0.01745577 -0.16324522 -0.044955753
-0.28375384 -0.13682838 0.32118106 -0.119482234 0.06931038 0.048260197 -0.08038501 -0.09006451
0.06605645 -0.036939174 0.19641928 -0.19581571 0.039811686 0.051438686 0.1764653 0.09325328
0.07975714 -0.14536814 0.02291772 -0.16035418 0.1667313 -0.019195717 0.26760703 0.22429149

fc2.weight f4 [128, 256]
00000000: f760 3c3d 390e 31be b9c5 923d 71e9 023e
00000010: 51ee 6d3e 08bf 0d3d e0ed 5bbe ae76 b2be
00000020: 8537 433e 5a49 ec3d d6cf 34be 0f94 113e
00000030: bef4 72bd b9d4 863d 445a 8e3d 8e03 8fbe
00000040: 5afa 32be c507 9d3d b111 b4be 2455 1a3e
00000050: c60a 6d3e 4773 1ebe 029c a23c 74d9 33be
00000060: ab6d 5abe 6bfa c7bd 1f1c a43e 4428 9ebe
00000070: 42f7 e6bd d451 fc3d e513 95bc 40b7 3cbd
00000080: f04c 30be 1227 5d3e c357 87bd 177e a1be
00000090: 6922 b63c 3f36 9abd 6c75 abbc 9013 0c3e
000000a0: 8f64 6fbe 9fb4 03bf 3555 593e 165b 943e
000000b0: 373f bfbc 37d7 02bc 5bf4 b73d f1a2 ddbd
000000c0: 1529 14bd 020f a63d 4c99 18be 005c 67bb
000000d0: b708 5c3e 71fd 6abe d794 cc3c 3ea1 e3ba
000000e0: d274 ff3d 8632 8fbe 9af3 3cbe 886c 133e
000000f0: 9b22 143e 027d 923d 34e6 403e d6ea cabd
00000100: 5181 debc eaf8 34bf a24a b6be 9bc5 19bc
00000110: 956c 28bd cc2f dabc ca7e 21be 1613 84bd
00000120: 0d34 71bb 1fb5 ab3e 181b 50bd fbfd 343d
00000130: edab 363e a0f3 183e cb0d f63d 9bf1 e23e
00000140: 349c 68be 0f5d 2cbd d38a f4bd daff 2c3d
00000150: 9493 c23e d8cd f93b 8959 a73d 3bb9 773e
00000160: cd45 683e 24c1 5f3e f679 9b3e d898 abbb
00000170: 13bb dbbd d444 68be 1a15 083e 75ad ce3b
00000180: 4272 0abe 9a6e 5c3c 8d93 b53d 4dd2 193d
00000190: 3af7 f43d 3c55 ee3c 6084 61be eca4 8a3d
000001a0: 00ee 1c3e 6b80 a7bd 32d9 cfbe bdca 76bc
000001b0: eff4 1d3e 571a ce3d 0662 aebd 8bd1 8ebe
000001c0: baac 98be 90c8 e7be e4e7 623d 5d58 fbbd
000001d0: 95e4 d13d 4c7b b83c db79 adbe f9ad 663d
000001e0: 7725 1abe 6f59 8abe 7972 62be 409a 883d
000001f0: fbea 673d 0496 c73e ed7a be3e e15d d0bb
00000200: cc76 01be 5f96 963e fbe4 d2bc 92c6 ffbd
00000210: 472d a9bd a8d0 993b 31bd a6bd 7e7e 773c
00000220: 4e95 82bd 14f0 e13d 7381 903d 3a59 3a3d
00000230: da6f 58be 414a 563e c691 413e aaa2 e03d
00000240: c8a0 b0bd 94ba c3bd d09d 2a3e 3ee3 a0bb
00000250: a61b 29be 53a7 57be a7d5 093e a76e b73c
00000260: b129 9c3e 212d c23c 2a93 773e 2bb8 45bd
00000270: fb6f 123e 1518 0d3b 905e 1a3d 88d0 313e
00000280: 4700 c7bd 9b76 04be fbdb c5bd a7b4 45bd
00000290: 3d55 06bd d73d f03d e775 e1bc 68b2 b4bd
000002a0: 5c3c 8c3d db85 a3bd c769 f5bd dc78 fb3d
000002b0: c2b0 4e3e cf56 c6be 3ee4 173d 6731 82be
000002c0: 1d19 163e 486b 513e f929 8dbe 1987 993e
000002d0: 6b10 bfbd 3ea1 0dbe 58a4 ad3d f3ef 1a3c
000002e0: 2327 24be 5ad8 2bbd 6d3e e73d a354 ed3d
000002f0: 2a03 e1bd 6734 233e 17cc 9ebb 28b7 0bbe
00000300: b936 9b3d 4eee a53e b202 57bd 46e7 04bd
00000310: f954 5f3d 9ff2 823d 0179 0bbe 68f6 a0be
00000320: 47c7 d3bc 18b3 0cbe 9dc0 493e 4bf2 093c
00000330: e75d 9cbd 17e0 a0bd 5eee d13c 27e8 e6bc
00000340: 3c03 073d e814 80bc ffee af3a 7fb9 fa3c
00000350: ef51 3e3e e547 c13a 9e92 ebba 88c3 213e
00000360: 3cb1 003e 89d2 783e 6da6 8bbc f498 383e
00000370: 2ce3 093d 1b21 843d 222e cf3c bb88 0d3e
00000380: 8af0 88bc b090 3b3e 85d4 20be f835 88be
00000390: 9252 363d 4ddb 1dbe 540c 103e 8735 da3d
000003a0: df37 753e 1039 bc3e 44de 04be e61e 2a3e
000003b0: 37c5 a4be db69 bf3b c36c 853c 6a82 763d
000003c0: 6573 e5bc 2831 6fbe fbc0 1c3e ea71 653d
000003d0: 3c31 dd3d 9b3b ccbc 8c65 983e b632 1b3d
000003e0: 2fa3 2b3d 08c9 01be 0d13 733e 3bd4 453e
000003f0: 43f9 9ebe 63fd e1bd e386 633e 4f3c 9abe
0.04599091 -0.17290582 0.07166619 0.12784363 0.23235442 0.03460601 -0.21477461 -0.3485617
0.19064148 0.11537428 -0.17657408 0.14216636 -0.059315436 0.065835424 0.069508106 -0.279324
-0.17478314 0.076674975 -0.35169747 0.15071541 0.23148641 -0.15473662 0.019849781 -0.1756342
-0.21330898 -0.0976456 0.32052705 -0.30890095 -0.112776294 0.12320295 -0.018197963 -0.0460732
-0.1721685 0.21596935 -0.06608536 -0.3154151 0.022233205 -0.07529878 -0.020930015 0.13679338
-0.23378204 -0.5144748 0.2122391 0.28975743 -0.023345573 -0.0079858815 0.08982154 -0.10822094
-0.03617199 0.08108331 -0.14902228 -0.003530264 0.214877 -0.22948243 0.024973316 -0.001736678
0.124734536 -0.27968234 -0.18452302 0.1439687 0.14466326 0.071527496 0.18837816 -0.09908073
-0.027161272 -0.7069231 -0.35603815 -0.009385492 -0.041119177 -0.02663412 -0.15771022 -0.06448953
-0.0036804706 0.33536622 -0.05080709 0.044187527 0.17839022 0.14936686 0.120143496 0.44324955
-0.22715837 -0.042080935 -0.11940541 0.042236187 0.38003218 0.0076234154 0.08171374 0.24191754
0.22682877 0.21851021 0.30366486 -0.0052367263 -0.10729041 -0.22682506 0.132893 0.006307299
-0.13520148 0.013454104 0.08866034 0.037554074 0.11961217 0.029093377 -0.22023153 0.067697376
0.15325165 -0.08178791 -0.40595394 -0.015062985 0.15425466 0.10063618 -0.0851479 -0.27894244
-0.2981928 -0.45270205 0.05539693 -0.12272713 0.10248677 0.02251973 -0.3388203 0.056318257
-0.15053354 -0.27021357 -0.2211398 0.06670046 0.05662058 0.3898164 0.3720316 -0.0063588475
-0.12642974 0.294116 -0.025743952 -0.12489046 -0.08260589 0.004694063 -0.08141554 0.015105842
-0.06376134 0.110321194 0.070559405 0.04549525 -0.21136418 0.20926763 0.18903264 0.10968526
-0.086244166 -0.09557071 0.16661763 -0.004909902 -0.16514453 -0.21059923 0.13460408 0.02239163
0.30500558 0.02370316 0.24177232 -0.04827134 0.1430053 0.0021529247 0.037687838 0.17364705
-0.0971685 -0.1293587 -0.096610986 -0.048267987 -0.032796133 0.11730545 -0.02752204 -0.08823091
0.0684745 -0.07984515 -0.11983066 0.122789115 0.20184615 -0.38738105 0.037082903 -0.25428316
0.14658017 0.20451081 -0.27571085 0.29985884 -0.09329303 -0.1383104 0.08478612 0.009456622
-0.16030554 -0.041954376 0.11291204 0.11588409 -0.109869316 0.15937959 -0.0048461067 -0.13644087
0.07578797 0.32408375 -0.052492805 -0.032447122 0.054524396 0.063939326 -0.13620378 -0.31437993
-0.025851859 -0.13740194 0.19702382 0.008419584 -0.07635098 -0.07855242 0.025626358 -0.02818687
0.03296207 -0.015634969 0.0013422667 0.03060603 0.18585943 0.0014746158 -0.0017972772 0.15797246
0.1256761 0.24299063 -0.017047131 0.18027097 0.033663914 0.06451627 0.025290553 0.1382169
-0.01671626 0.18316913 -0.1570607 -0.26603675 0.04451234 -0.15415688 0.14067203 0.10654741
0.23947094 0.36762285 -0.12975413 0.1661335 -0.32181713 0.0058414764 0.016287213 0.060182966
-0.028009126 -0.23358595 0.15307991 0.05601684 0.10800406 -0.024930766 0.29764974 0.03789016
0.04190367 -0.12674344 0.23737736 0.19319241 -0.31049547 -0.11034658 0.22219424 -0.30124137

fc2.bias f4 [128]
00000000: a722 763b 2b62 3a3c d0e8 3ebc b0f0 80bd
00000010: fe3d 4bba 7b34 c63d 4323 183c 733b 02be
00000020: d718 ecbb 27e3 4a3c 7d63 dbbc 7b24 74bd
00000030: cfff 4bbd 10f9 a43b e226 993d c39b 413d
00000040: 90d4 133d 7c3a 223d a307 9fbd dd87 ffba
00000050: 6255 0abd 404e ebbd 4dca 5ebd 3bfe ec3d
00000060: 27bd b3bb b27d f1bc cfbf 2dbc dd6b cdbb
00000070: 7394 933b d208 b9bc da78 01be 5e60 ffbd
00000080: d3d7 383d c7b0 51bc 6d98 52bd 666f 863d
00000090: 4019 8f3d 6cb3 963b 5dda d93c 7d0a 1cbd
000000a0: 979b 8b3d 7406 e53c f945 17bd 533d bfbc
000000b0: 4545 da3b b407 353d 57c6 9c3c a1ca 5d3c
000000c0: f6d9 83bd 8a46 d6bb fc42 223d d616 083d
000000d0: 6011 89bc 4987 f4bd ff4e 0bbd fac1 57bc
000000e0: 8784 07bd 7740 c6bc 0dc3 9e3c 7ac5 7cbd
000000f0: 5712 8ebb 77cd 02bd 89b5 bb3c e872 d83c
00000100: c83f 25be 265a 2e3d 4d3a c73b d1b0 433d
00000110: d0c4 2d3d c8f9 0c3d dbde a9bd aa87 4e3d
00000120: 52d3 283c a9b3 4a3d 0008 23bb 8593 fcbb
00000130: 97f9 15bd 2771 f33c baaa c2bb f4a6 b83d
00000140: 9cc5 82bd 2737 f3bc 36d2 0cbd 7d08 48bc
00000150: 1429 36bd 9e0f cabd 4834 683d 07f1 f73d
00000160: c478 033e c86e ad3d fe08 513b 1e60 33bc
00000170: c07d b63d 9416 b53c 35f7 03bd 764f 2d3d
00000180: d6a5 80bc bc8b 0b3d 19a3 46bd 4382 5dbb
00000190: 3960 54bd 2148 3e3d 4f52 723d 859a 573c
000001a0: 1f70 e03c 57ec 9fbd 72b6 ff3c af74 803d
000001b0: 2d2f b23d 8f29 dc3c f644 9dbb 101d 783b
000001c0: 7832 293d 8ad0 4abd 9383 223d 8602 30bd
000001d0: 2fd0 7b3d ffe9 e0bc 4813 c73d 6d9d 4b3d
000001e0: ff1a 94bb cd2d f2bd 6ef1 97bc 2af1 a43d
000001f0: 16a2 04bd 42bd 3bbc e945 02bd ef4c b9bd
0.0037557276 0.011375944 -0.0116521865 -0.062959075 -0.0007753073 0.096779786 0.009285751 -0.1271799
-0.0072051096 0.012383259 -0.026780838 -0.059605103 -0.049804505 0.0050345734 0.074781194 0.047267687
0.036091387 0.039606556 -0.077651285 -0.0019495446 -0.033772834 -0.114895344 -0.054392148 0.11571928
-0.005485195 -0.029478882 -0.010604813 -0.006268962 0.0045037805 -0.022587214 -0.12643757 -0.124695525
0.0451277 -0.012798495 -0.051414896 0.06564216 0.06987238 0.0045990255 0.026593382 -0.03809594
0.06816786 0.027957179 -0.036931966 -0.023344671 0.0066610896 0.0441968 0.019137545 0.01353708
-0.06438057 -0.0065391706 0.039614663 0.033224903 -0.016731918 -0.11939866 -0.034010883 -0.013168806
-0.033085372 -0.024200661 0.019380117 -0.061711766 -0.0043356824 -0.031934228 0.022913711 0.02642198
-0.16137612 0.04256644 0.006079948 0.047776047 0.042424023 0.034417897 -0.082944594 0.050422348
0.010304289 0.049487744 -0.0024876595 -0.0077080154 -0.03661498 0.029717041 -0.0059407623 0.09016219
-0.06385347 -0.029689385 -0.03438016 -0.012209055 -0.04447277 -0.0986626 0.056690484 0.12106519
0.12839037 0.084683955 0.003189623 -0.010948209 0.08910704 0.022105493 -0.032218177 0.042312108
-0.015704077 0.034068808 -0.048495386 -0.0033799566 -0.051849578 0.046455506 0.059160527 0.013159399
0.027397214 -0.0780875 0.031214926 0.06272256 0.08700404 0.026875285 -0.0047994805 0.003785912
0.041307896 -0.049515285 0.03967626 -0.042971157 0.061477836 -0.027455328 0.097204745 0.04971068
-0.0045198197 -0.11825142 -0.01854774 0.08053811 -0.03238114 -0.011458697 -0.031804953 -0.09047877

fc3.weight f4 [4, 128]
00000000: c4b4 4d3f c20f 003e ed07 26bf 3bdd 733f
00000010: 6c62 103d 5454 293e 9c59 563c 3c5f b33d
00000020: d9eb 0bbf 4ea2 473f 9513 b73e 338b bdbd
00000030: 77db 603e 2c74 663d 705e 18bf 9a0b 0fbe
00000040: 4fad dbbd 5b95 92bd cbb8 48be 3fc8 b0be
00000050: 6ee9 0abd 31f2 8e3e ee89 48bf db63 ecbd
00000060: be08 923d 6851 f1be 895a b83e 9402 933e
00000070: 5d17 7dbd ea1e 443e bb52 09be 8906 953d
00000080: 7900 7fbe e69a 93bd b5ee de3e af65 65bd
00000090: c991 7bbe 6426 583d 64ec 4abf 155e 41be
000000a0: 47d1 863d 3040 9a3e 739d 9a3e 4329 c6be
000000b0: 339c 1dbe 1e1a cf3e 0889 2b3e 3397 81bd
000000c0: 51bb ac3d 21d3 23be e6f8 0fbd 0c53 f8be
000000d0: 9260 d5be b07e b9be cb25 edbe 746c e1bd
000000e0: e06c 823f 1df9 0e3e 909f 073f 01b0 7b3e
000000f0: 2316 523e 9a70 6fbf a2f5 cc3b dd12 153f
00000100: 3404 4b3e 422b 13bf cd61 423e f20d 1c3f
00000110: c297 243f 8779 973e fe6e 1b3f fa69 c93e
00000120: b830 ae3d df65 1ebf 24d0 6cbe d57b 363e
00000130: 8db7 813e eea5 873d dbae 333f a832 cbbe
00000140: 3230 e23d a357 1d3d 1454 1d3f 338b 0ebe
00000150: 0137 6ebe 3062 0bbd 0b4d 9ebe 5286 a13e
00000160: 3349 a8be da3b 26be 001d c1bd 42fa 18be
00000170: a356 7fbe 8bb4 193f c826 f23e 0b7c 973e
00000180: aabb dc3d 42d5 d33e 638b 67bd b9a2 51bd
00000190: f413 e6bc ebe6 443f b019 01be 2ec3 b53d
000001a0: e5f6 a9be bc81 c0be cc5f 2fbf b7cb aabf
000001b0: 8e8c 3e3d 2fe4 b7be 9244 9f3e 6f5b 84be
000001c0: 8fb3 783f 70a9 ee3e bea7 13bf 061d 2e3e
000001d0: 9761 92be f338 b13d 59a2 0abf c43d 4bbe
000001e0: a27b 08bf 311f 313f bf02 8bbd 172a 0a3e
000001f0: b1fd 303f d87b b2bd 3793 2f3f b853 ba3e
00000200: 97ef dbbd 2def fabe eb55 acbe cb19 f6be
00000210: 969d 4c3e 83b0 4a3f 138a adbd e6e0 92be
00000220: 7acb a83e 5b0e e4bd 91b7 e43e cb69 cb3d
00000230: d14c 73be 7014 bd3e 2ff8 ba3c 2fb7 0dbf
00000240: 5379 0ebf e110 e9be 1818 5f3d f4d3 ebbe
00000250: 8820 4f3f fad2 07bf 991c 0cbe cbea 9e3d
00000260: cb89 863f 066a 72be ee28 603f 44cb 763e
00000270: d94e 5bbe 0aa4 8bbd c034 17bf b40c abbe
00000280: 94de 33be 3975 8fbf 0f88 41bf cb2c 133d
00000290: fbbe b23e 2b1c 5d3e 5dc4 663f bb33 75bd
000002a0: 8240 72be 27cf 2bbe c135 1dbd e5cc ba3f
000002b0: 8a3f 043f 75e4 0cbe 4336 cebe 686b 083f
000002c0: 1795 86bf 648a 0ebf d6f8 fe3e 80f2 13bc
000002d0: b509 a6bd a278 16be 3f5b 21bd fcab 8dbd
000002e0: 99f2 c5be ea9f 4ebe f371 dfbd 7031 783f
000002f0: 1387 2fbe a551 0cbf 3196 91be 60cf 923d
00000300: 5116 ae3b daa5 d93e 8661 0f3f 0a07 8abe
00000310: 0816 ccbe 9a04 44bf a6ed f63e e7f1 993e
00000320: b085 a6be deca d03e 5e67 96be a3e3 c83e
00000330: a8d7 05bf 974f 86bc ab59 273e 8b9b bc3e
00000340: 4a07 37be 9c66 043f 9cc4 183f adfb 46be
00000350: 1d5e d3be 1951 2cbc df25 0bbe 0c25 32bf
00000360: f80f cabe 388e 923e 68df c23f f952 e93e
00000370: 6085 2cbe 1461 0e3f f3ee 17bf fc71 0abf
00000380: c917 7ebe 4401 4a3e cdcd e1bd e895 78bf
00000390: b0bc 3cbf 8830 703e 2047 1e3e ea57 13bd
000003a0: fc08 f93e 8244 82bf e06f 07be 9357 d3bc
000003b0: 8ece 67be 6ed6 c5be ef64 3e3d 8480 90be
000003c0: 04c1 ea3e f785 14bf f993 ecbe 3327 ffbe
000003d0: e51d 183e a7a5 793f e11d 94be 48d3 90bd
000003e0: ec81 e63e e560 0dbe faf2 91be 2bcf 98be
000003f0: 9abf 133f 61b6 b83f bcec 873e 1db7 7d3e
0.8035395 0.12506011 -0.64855844 0.95259446 0.035250112 0.16536075 0.013082888 0.08758399
-0.5465675 0.7798203 0.35757127 -0.09255066 0.21958719 0.056263134 -0.595191 -0.1396927
-0.10726415 -0.071573935 -0.19601743 -0.34527776 -0.033914022 0.27919152 -0.78335464 -0.115424834
0.07130574 -0.4713242 0.36006573 0.28712904 -0.06178986 0.19152418 -0.13410465 0.07276637
-0.24902524 -0.07207279 0.43541494 -0.056005176 -0.24567331 0.052770987 -0.79266953 -0.18883546
0.06582885 0.30127096 0.3019825 -0.38703355 -0.15391617 0.40449613 0.16751492 -0.06327667
0.08434165 -0.15998508 -0.035149477 -0.4850086 -0.4167524 -0.36229467 -0.46317896 -0.11007014
1.0189476 0.13962217 0.5297785 0.24578859 0.20516257 -0.9353119 0.0062548677 0.5823191
0.19825822 -0.5748788 0.1898262 0.6095878 0.64294064 0.29584906 0.60716236 0.39338666
0.08505386 -0.6187419 -0.23126274 0.17820676 0.2533535 0.066234455 0.70188683 -0.39687085
0.11044349 0.038413655 0.6145642 -0.13920288 -0.2326317 -0.034029186 -0.30918154 0.3154779
-0.32868347 -0.16233769 -0.094293594 -0.14939216 -0.24935393 0.6004111 0.47295213 0.29586825
0.107779816 0.4137364 -0.056529414 -0.051180575 -0.028085686 0.7691485 -0.12607455 0.08875118
-0.33196178 -0.3759898 -0.6850555 -1.3343419 0.046520762 -0.35916278 0.31107002 -0.25851008
0.97148985 0.46613646 -0.5767783 0.17003259 -0.2859008 0.0865344 -0.5415397 -0.1984778
-0.5331365 0.6918822 -0.06787633 0.13492619 0.691371 -0.087150276 0.6858401 0.36391997
-0.107390575 -0.49010602 -0.336593 -0.48066553 0.1998199 0.79175586 -0.08473601 -0.2868721
0.3296774 -0.111355506 0.446713 0.09932288 -0.23759772 0.36929655 0.022823421 -0.5535764
-0.55653876 -0.4552069 0.054466337 -0.46060145 0.80909014 -0.530563 -0.13682784 0.07759627
1.0510801 -0.23673257 0.87562454 0.24100977 -0.21416797 -0.06818397 -0.59064865 -0.3340813
-0.17565376 -1.1207649 -0.75598234 0.03593139 0.34911332 0.21592776 0.90143377 -0.059863787
-0.2365742 -0.16778241 -0.03838134 1.4593779 0.5165945 -0.13759024 -0.40275773 0.5328889
-1.0514249 -0.5567992 0.49799222 -0.0090299845 -0.0810732 -0.14694455 -0.03939366 -0.06917569
-0.3866165 -0.2017819 -0.10910406 0.96950436 -0.1714137 -0.5481208 -0.284349 0.0716846
0.005312719 0.42509347 0.56008184 -0.26958495 -0.39860559 -0.7656952 0.48228186 0.3006737
-0.3252387 0.40779775 -0.29375738 0.39236173 -0.5228219 -0.016395373 0.163428 0.3683742
-0.17873874 0.5171907 0.59675 -0.19431944 -0.4128274 -0.010517382 -0.13588665 -0.6958778
-0.39465308 0.2862413 1.5224428 0.45571116 -0.16847754 0.5561688 -0.5934898 -0.54080176
-0.24813761 0.19727045 -0.110255815 -0.9710374 -0.73725414 0.23456013 0.1545682 -0.035972513
0.48639667 -1.0177157 -0.1322627 -0.025798595 -0.22637388 -0.3864016 0.046482977 -0.2822305
0.45850384 -0.58016914 -0.46206644 -0.49834594 0.14855154 0.9751839 -0.28929046 -0.07071549
0.45020998 -0.13806494 -0.2850569 -0.29845557 0.57714236 1.4430658 0.26547801 0.24776883

fc3.bias f4 [4]
00000000: 0544 f0bc a16e 24bd 81a0 a73d 3e3e 623b
-0.02932931 -0.040144566 0.081849106 0.0034521963
